cifar_net.pth (torch, 251231 bytes, 10 tensors)

conv1.weight f4 [6, 3, 5, 5]
0	0xbe7d53ae	-0.24738953
1	0xbeca4c91	-0.3951154
2	0xbd9ba7b1	-0.07600344
3	0x3e0bcaca	0.13651577
4	0x3e3c031e	0.18360564
5	0x3e669d1f	0.22520874
6	0xbde22ac9	-0.11043317
7	0xbe649e60	-0.2232604
8	0x3dc55e4b	0.096371256
9	0x3e018348	0.12647736
10	0x3e9fac49	0.3118613
11	0x3e67c79d	0.2263474
12	0xbe35fb5a	-0.17771664
13	0xbc18aacc	-0.009318065
14	0x3d81691e	0.06318878
15	0x3eb5c88b	0.35504565
16	0x3e8951fc	0.26820362
17	0x3d8185d1	0.063243516
18	0xbcf5cf37	-0.030006034
19	0x3d43a91b	0.047768693
20	0xbc8ae651	-0.016955527
21	0x3e3d481c	0.18484539
22	0x3db9e7af	0.09077393
23	0x3d358e18	0.044324964
24	0x3d8ae0b7	0.06781142
25	0xbe9d7740	-0.30755043
26	0xbf0a2aff	-0.53971857
27	0xbe839b32	-0.25704342
28	0x3dd31798	0.103072345
29	0x3e6f8d72	0.23393801
30	0x3de45d23	0.11150577
31	0xbe4a8baf	-0.19779848
32	0xbe8fb475	-0.28067365
33	0xbd1f03be	-0.03882193
34	0x3df31079	0.11868376
35	0x3e80c887	0.2515299
36	0x3dac2f5f	0.08407473
37	0xbe67196f	-0.22568296
38	0xbe78905e	-0.24273822
39	0xbd96e75c	-0.07368347
40	0x3e285eae	0.16442367
41	0x3dc876fb	0.09788319
42	0xbe3cc514	-0.18434554
43	0xbe89d24b	-0.26918253
44	0xbe2a4b33	-0.16630249
45	0xbca317b7	-0.019908769
46	0x3d32679a	0.043555833
47	0xbca4f4a4	-0.020136185
48	0xbc26cbcb	-0.010180424
49	0xbe3645d1	-0.1780007
50	0xbe6baebf	-0.23015879
51	0xbea1fb96	-0.31637257
52	0x3a892424	0.0010463041
53	0x3e8e678d	0.27813378
54	0x3e9e9c46	0.30978602
55	0xbc3cb6a9	-0.011518159
56	0xbe5bb31e	-0.21455047
57	0xbea910e5	-0.33020702
58	0xbd463d3d	-0.048398245
59	0x3e0a0786	0.13479432
60	0x3e975f47	0.29564878
61	0x3d43a000	0.04776001
62	0xbe2e7613	-0.17037229
63	0xbe781b02	-0.24229053
64	0x3d517e82	0.051146038
65	0x3e9ac02c	0.3022474
66	0x3eb43df5	0.3520352
67	0x3c941a5e	0.01807898
68	0xbdfa9609	-0.12235648
69	0xbce08a6e	-0.027409758
70	0x3e469a42	0.19394782
71	0x3ebb8840	0.36627388
72	0x3e55539b	0.20832674
73	0x3e1118d3	0.14169626
74	0x3b00f120	0.0019674972
75	0xb9c8ace3	-0.00038275783
76	0xbd677ff2	-0.056518503
77	0xbdc81f1c	-0.09771559
78	0xbde97b11	-0.11400426
79	0xbe0b1805	-0.13583381
80	0x3d0eda0f	0.034875926
81	0xbddaa2d4	-0.10675588
82	0xbdcc98ba	-0.09990068
83	0xbcb1d27b	-0.02170681
84	0xbe2c3555	-0.1681722
85	0xbe3a8f23	-0.18218665
86	0xbe4cd40c	-0.20002764
87	0xbe84e362	-0.2595473
88	0xbec654b7	-0.38736507
89	0xbeb3a435	-0.35086218
90	0xbe1cd4a2	-0.15315488
91	0xbead205e	-0.33813757
92	0xbeb0e340	-0.34548378
93	0xbe7cd38c	-0.24690074
94	0xbe344fc2	-0.1760855
95	0xbe241013	-0.16021757
96	0xbdeb1163	-0.11477926
97	0xbd7684f2	-0.06018538
98	0xbdb56f5b	-0.0885913
99	0xbe87ea5a	-0.26545984
100	0x3cf5008e	0.029907491
101	0xbe1e5b68	-0.15464556
102	0x3a907992	0.0011022559
103	0xbe3f6981	-0.1869259
104	0xbe2c86ef	-0.16848348
105	0x3d281f5a	0.041045524
106	0xbd31518f	-0.04329067
107	0x3e1b8928	0.1518904
108	0x3e4a45f5	0.19753249
109	0x3e15453a	0.14577189
110	0x3df97018	0.12179583
111	0xbcf99cab	-0.030470213
112	0x3d282312	0.04104907
113	0x3ded1566	0.11576347
114	0xbe04f365	-0.12983473
115	0xbc7f79eb	-0.015593032
116	0x3e1b6d80	0.1517849
117	0x3dd780e3	0.1052263
118	0xbda650b4	-0.08120862
119	0xbe1f31e8	-0.15546381
120	0x3ceed982	0.02915645
121	0xbb8bb76e	-0.00426381
122	0x3ca68032	0.0203248
123	0x3dd73b1d	0.10509322
124	0x3c730786	0.014833337
125	0xbc20559e	-0.009786038
126	0x3d978c61	0.07399822
127	0x3c431310	0.0119064
128	0x3e1a9f80	0.15099907
129	0xbccf3fc0	-0.025298953
130	0x3d9c34f2	0.07627286
131	0x3ea9bc4d	0.33151475
132	0x3ef9c67b	0.4878424
133	0x3e9d9ab9	0.30782107
134	0x3eb6598e	0.356152
135	0x3e17ccdd	0.14824243
136	0x3e999520	0.29996586
137	0x3ebaee71	0.3651004
138	0x3eca242d	0.39480725
139	0x3e799498	0.2437309
140	0x3db69d18	0.08916682
141	0x3e02663f	0.12734316
142	0x3e824c94	0.2544905
143	0x3ea5f790	0.32415438
144	0x3e118955	0.14212544
145	0xbdd45d51	-0.10369361
146	0x3e041c06	0.12901315
147	0x3e5ce9c1	0.21573545
148	0x3dad9ca9	0.08477146
149	0xbd0d2b22	-0.034464963
150	0x3e4022e2	0.18763307
151	0x3ed0535c	0.40688598
152	0x3ecc4dfe	0.39903253
153	0x3ec46826	0.3836071
154	0x3e63e8f6	0.22256836
155	0x3e91f36f	0.28506038
156	0x3f3ac2aa	0.72953284
157	0x3f1c1741	0.6097298
158	0x3eeb73a3	0.4598666
159	0x3e470fe0	0.1943965
160	0xbe9a3f72	-0.3012653
161	0xbed0c7a4	-0.40777314
162	0xbed20e01	-0.4102631
163	0xbd859b69	-0.06523783
164	0xbc6391f2	-0.013889777
165	0xbe5bba88	-0.21457875
166	0xbec5767e	-0.38566965
167	0xbf0ceb5e	-0.5504664
168	0xbee9d581	-0.45670703
169	0xbdf2e0f3	-0.11859312
170	0xbdc1ddf5	-0.09466163
171	0xbdf8c57a	-0.12147041
172	0xbde02832	-0.10945167
173	0xbe7c3baf	-0.24632142
174	0xbdb8d1d3	-0.09024396
175	0xbc401ec9	-0.01172609
176	0x3e5d62cf	0.21619724
177	0x3d21e38f	0.039523657
178	0xbd08085d	-0.0332111
179	0xbe04d4cc	-0.129718
180	0x3e158578	0.14601696
181	0x3ea58e6d	0.32335225
182	0x3ef1185f	0.47088906
183	0x3e2f6c17	0.17131077
184	0x3e2f3a0b	0.17111985
185	0xbea0c2f3	-0.31398734
186	0xbf14dc1f	-0.5814838
187	0xbed97571	-0.42472413
188	0xbe3945b6	-0.18092999
189	0xbd7d9aad	-0.06191509
190	0xbe2b4196	-0.16724238
191	0xbead0230	-0.3379073
192	0xbefe71f3	-0.4969631
193	0xbe5a7bdc	-0.21336311
194	0x3d3cc1a1	0.046083096
195	0x3e249e3c	0.16075987
196	0x3e8c81d2	0.27442795
197	0x3ea1f9b6	0.31635827
198	0x3e1bc42f	0.15211557
199	0x3dbf36b0	0.09336603
200	0xbe12489f	-0.14285515
201	0x3db1a381	0.08673764
202	0xbe59602d	-0.21228094
203	0xbe244ca9	-0.16044869
204	0xbe86faef	-0.26363322
205	0xbd00d8bf	-0.031456705
206	0x3e872c63	0.26401052
207	0x3e9ccc76	0.3062474
208	0x3e33fbef	0.17576574
209	0xbc1d10b3	-0.009586501
210	0xbdc46b1e	-0.095907435
211	0xbf02ed56	-0.51143396
212	0xbe8f9d01	-0.28049472
213	0xbe06aecf	-0.13152622
214	0xbdb7de4c	-0.08977947
215	0x3e0ff4fd	0.140583
216	0xbe710fcc	-0.23541182
217	0xbe99794c	-0.29975355
218	0xbc54d82f	-0.012990995
219	0x3d4c0c9c	0.049816713
220	0x3ea7998e	0.3273434
221	0x3eb79ac0	0.35860252
222	0x3f01fc09	0.507752
223	0x3ea40aa7	0.32039377
224	0x3d7fabe1	0.062419776
225	0xbe3e4fa6	-0.18585071
226	0xbe893a26	-0.26802176
227	0xbe389a39	-0.18027581
228	0xbd832181	-0.06402875
229	0x3da543a1	0.0806954
230	0xbe5eb3ae	-0.2174823
231	0xbe2408d5	-0.16018994
232	0x3beaff75	0.007171566
233	0x3e43a726	0.19106731
234	0x3dc1c6ad	0.094617225
235	0xbe1e3e3d	-0.1545343
236	0xbdc2be40	-0.095089436
237	0x3e7e1814	0.24813873
238	0x3e1179d8	0.14206636
239	0x3deb8fb6	0.1150202
240	0xbd8a9083	-0.06765845
241	0x3d86e733	0.065870665
242	0x3e987d6c	0.2978319
243	0x3e822e37	0.25425884
244	0x3e046fd4	0.12933284
245	0x3dd13bd2	0.10216488
246	0x3e3b91ad	0.1831729
247	0x3e4d1820	0.20028734
248	0x3e5e0cf1	0.21684624
249	0x3dfcca69	0.12343294
250	0xbe379a2e	-0.17929909
251	0xbe86d5ef	-0.26335093
252	0xbe27ccfc	-0.16386789
253	0x3db0016f	0.085940234
254	0x3dedb94c	0.11607608
255	0xbe9a609c	-0.30151832

conv1.bias f4 [6]
0	0xbe1b1fe8	-0.1514889
1	0x3ea98986	0.33112735
2	0xbeed37d8	-0.46331668
3	0xbd4fab5d	-0.050700534
4	0xbeacfe4f	-0.33787772
5	0xbe6baff4	-0.2301634

conv2.weight f4 [16, 6, 5, 5]
0	0xbd848267	-0.06470185
1	0x3e127e3f	0.14305972
2	0xbd05a017	-0.032623377
3	0x3d3aad44	0.045575395
4	0x3c4d800e	0.012542738
5	0xbd31b753	-0.043387722
6	0x3d4408d3	0.047859978
7	0xbe1cecab	-0.15324657
8	0x3d6adafe	0.057337753
9	0xbd285557	-0.04109701
10	0xbe81c772	-0.25347477
11	0xbce2b1eb	-0.027672729
12	0xbe4875fb	-0.19576256
13	0xbd9cb55b	-0.07651778
14	0xbe37850f	-0.17921852
15	0x3c197688	0.009366639
16	0x3ca00996	0.01953582
17	0xbe242f1b	-0.16033594
18	0x3d3b4575	0.045720536
19	0xbd80e0e1	-0.06292892
20	0xbd056160	-0.032563567
21	0xbcb55764	-0.022136398
22	0xbe64ff0d	-0.22362919
23	0xbd2d264e	-0.04227286
24	0xbde5f511	-0.11228383
25	0x3d56891b	0.052376848
26	0x3cc88a91	0.024480136
27	0x3d7f0b6d	0.062266756
28	0x3d4410fe	0.047867768
29	0xbca240fb	-0.019806376
30	0x3d32341b	0.043506723
31	0xbd4b5f46	-0.049651407
32	0xbca92f33	-0.02065239
33	0x3d27ca2e	0.040964298
34	0x3b97d843	0.0046339347
35	0x3deecd15	0.1166021
36	0x3e310767	0.1728798
37	0x3e0b1517	0.13582264
38	0x3e03110b	0.1279947
39	0x3e183995	0.14865716
40	0xbe0ea61b	-0.13930552
41	0xbdaac2f4	-0.083379656
42	0xbd2362f0	-0.039889276
43	0x3d4d4ad1	0.05012018
44	0xbd743d44	-0.05962874
45	0xbe15835f	-0.14600895
46	0xbe589ced	-0.21153612
47	0xbdb01c11	-0.08599103
48	0xbdc6f761	-0.097151525
49	0xbe893827	-0.26800653
50	0x3e70e2ca	0.23524013
51	0x3d54a659	0.051916454
52	0x3c38284a	0.011240074
53	0x3bafed87	0.0053688916
54	0x3d1a939f	0.03773844
55	0x3e4ea5b9	0.20180406
56	0x3d1eef47	0.03880241
57	0x3d98ec55	0.07466952
58	0x3ce93b84	0.028470762
59	0x3e25c1b6	0.16187176
60	0x3e80d4d2	0.2516237
61	0x3e2f2acc	0.1710617
62	0x3e20b6dd	0.15694757
63	0x3ddd16f4	0.107953936
64	0x3dcab8f4	0.09898558
65	0xbde9bb08	-0.114126265
66	0xbe43f7f3	-0.19137554
67	0xbe072c87	-0.1320058
68	0xbde7c534	-0.113169104
69	0xbe188b02	-0.14896777
70	0xbe8f766a	-0.2802003
71	0xbe7238bd	-0.23654456
72	0xbe909d8b	-0.28245196
73	0xbe8860ad	-0.26636258
74	0xbe88d1a7	-0.26722452
75	0xbd426cb6	-0.047466956
76	0x3b427f91	0.0029678086
77	0x3d812168	0.063052
78	0x3dd82a16	0.10554902
79	0x3dbafdbb	0.091304265
80	0xbde1cd43	-0.11025479
81	0xbcf0ef93	-0.029411113
82	0xbd4ba9e8	-0.049722582
83	0xbd0cdd92	-0.034390993
84	0x3dbfa20d	0.093570806
85	0xbe03bc21	-0.12864734
86	0xbdd1a532	-0.10236587
87	0xbda37e56	-0.07983081
88	0xbe0448a7	-0.1291834
89	0xbd543769	-0.051810656
90	0xbc5a58e0	-0.0133268535
91	0xbd60be0c	-0.054868743
92	0x3d13cfa1	0.036086682
93	0xbe12e263	-0.14344172
94	0x3c7ff118	0.015621446
95	0x3d29ead4	0.041483715
96	0x3d5f2cee	0.054486208
97	0x3e146287	0.1449071
98	0xbe422d4d	-0.18962593
99	0x3cc40e25	0.023932526
100	0x3e0ee36e	0.13953945
101	0x3b99df2c	0.0046957936
102	0xbcb0ea12	-0.021595988
103	0x3e042730	0.12905574
104	0xbd9e17da	-0.07719393
105	0x3bd925a0	0.0066267997
106	0xbd268479	-0.04065368
107	0xbcd0ddc4	-0.025496371
108	0x3baaebbc	0.00521609
109	0xbd29ca1f	-0.041452523
110	0x3c9f7d74	0.019469
111	0xbd26bb0a	-0.040705718
112	0xbe1259aa	-0.14292017
113	0x3afcebfb	0.0019296402
114	0xbd86b648	-0.06577736
115	0xbe4c0c49	-0.19926561
116	0xbe8815b6	-0.26579064
117	0xbe7d0639	-0.24709405
118	0xbe50be0b	-0.20384996
119	0xbe1c57d2	-0.15267876
120	0xbe2fb520	-0.17158937
121	0xbe841283	-0.25795373
122	0xbe7ede2c	-0.2488944
123	0xbe920f6f	-0.285274
124	0xbe7a074b	-0.24416845
125	0x3d596a98	0.05308017
126	0xbca58cd8	-0.020208761
127	0xbe0567d1	-0.13027884
128	0x3e320945	0.17386349
129	0xbdb980fc	-0.09057805
130	0x3d00c850	0.031441033
131	0x3d7b047c	0.061283574
132	0xbe1f20aa	-0.15539804
133	0x3e897ee0	0.2685461
134	0xbda7c88d	-0.08192549
135	0x3be0f5ad	0.0068652243
136	0x3e0b191b	0.13583796
137	0xbd84f4a5	-0.06491975
138	0x3ec11eea	0.37718898
139	0xbbe7fe8a	-0.007079904
140	0x3d2c0b14	0.042002752
141	0x3e8bc67a	0.27299863
142	0xbdb38578	-0.087656915
143	0x3eac7f01	0.33690646
144	0x3cedbc0a	0.029020328
145	0x3c08a6eb	0.008340578
146	0x3dd7c271	0.10535134
147	0xbe91071f	-0.28325745
148	0x3e2d1a5f	0.16904591
149	0xbc593e9c	-0.013259556
150	0x3c5e1bf7	0.013556472
151	0x3dbc2818	0.09187335
152	0x3d43b33f	0.047778364
153	0xbd52e712	-0.051489897
154	0xbc8d73d4	-0.017267145
155	0xbd77e59a	-0.0605217
156	0xbd8d4293	-0.06897464
157	0xbc39e672	-0.011346446
158	0x3cdb85a1	0.026797118
159	0xbc0edcae	-0.008719606
160	0xbceba194	-0.02876357
161	0xbda03602	-0.07822801
162	0xbdf42dd3	-0.11922803
163	0xbd8041ec	-0.062625736
164	0x3da2fbc0	0.07958174
165	0x3e4cdcc4	0.2000609
166	0x3dbf8d71	0.0935315
167	0x3c552974	0.0130103715
168	0x3d425ba4	0.047450677
169	0x3d845e59	0.06463308
170	0x3cc98f39	0.024604427
171	0x3daaad46	0.083338305
172	0xbca4b0c1	-0.020103814
173	0xbd9e4438	-0.077278554
174	0xbe1946f2	-0.1496847
175	0xbe05c23e	-0.13062379
176	0xbde75e1e	-0.11297248
177	0xbe2f7f74	-0.17138463
178	0xbe27bb3f	-0.16380022
179	0xbdcf4f67	-0.10122567
180	0xbb2adf15	-0.0026072909
181	0x3d8b4ad6	0.06801383
182	0x3da6333d	0.08115242
183	0x3d8b8a89	0.06813533
184	0x3cf6ba9b	0.030118277
185	0x3cdc923f	0.026925204
186	0x3d26d7fd	0.040733326
187	0xbcd9ec0c	-0.026601814
188	0x3d3d8966	0.04627361
189	0xbc9add4b	-0.018904349
190	0x3d34d0ca	0.04414443
191	0x3d141f84	0.03616287
192	0x3b8a8981	0.0042278175
193	0x3de1f959	0.110338874
194	0xbcfadfa7	-0.030624224
195	0x3eb16897	0.34650108
196	0x3e49303d	0.19647308
197	0x3d7cee51	0.061750714
198	0x3de8ffce	0.11376916
199	0x3e5724be	0.2101011
200	0x3dd7ac55	0.105309166
201	0x3c9b98ce	0.018993761
202	0xbe253c09	-0.16136183
203	0xbe210cfb	-0.15727608
204	0xbd82ad75	-0.063807406
205	0x3d3fa491	0.046787802
206	0x3e0d6ba2	0.1381059
207	0x3e5ea51e	0.21742675
208	0x3e090e21	0.13384296
209	0x3e6237f2	0.22091654
210	0x3ca9cdde	0.020728048
211	0x3d650f6c	0.05592291
212	0x3dc0ec45	0.09420065
213	0x3d8fb9c3	0.07017853
214	0x3e23742f	0.1596229
215	0xbac733e3	-0.0015197959
216	0x3e07f9b2	0.13278845
217	0x3e839355	0.25698343
218	0x3e869a17	0.26289436
219	0x3e9ac5fd	0.30229178
220	0x3d3660dc	0.044525966
221	0x3c1c2b36	0.009531787
222	0x3e258d22	0.16167119
223	0x3e4c957e	0.19978902
224	0x3e00f838	0.12594688
225	0xbd497730	-0.04918593
226	0xbe173bc0	-0.14768887
227	0xbe24bcfe	-0.1608772
228	0xbdcf84a1	-0.10132719
229	0xbdb769dd	-0.08955739
230	0xbdcca7be	-0.09992932
231	0xbdfce862	-0.12349011
232	0xbddbbb93	-0.10729136
233	0x3c751972	0.01495968
234	0x3dc33c84	0.09533027
235	0xbdc7f57e	-0.09763621
236	0xbd299d2d	-0.04140966
237	0xbc3e483c	-0.011613902
238	0x3ccfeb5f	0.025380788
239	0x3d7127c2	0.058875807
240	0xbe4965c7	-0.19667731
241	0xbddd5c22	-0.108085886
242	0xbe34ef45	-0.17669399
243	0xbd3f9671	-0.04677433
244	0x3d9d8f42	0.0769334
245	0xbe882699	-0.26591948
246	0xbe3e03d7	-0.18556152
247	0xbe2b5320	-0.16730928
248	0xbd13f36e	-0.036120825
249	0x3d3f7a36	0.04674741
250	0xbd1a3ce1	-0.037655715
251	0x3d45ef39	0.048323844
252	0xbc018451	-0.007905082
253	0x3dae9a68	0.085255444
254	0xbb9fb634	-0.004874015
255	0x3d965464	0.07340315

conv2.bias f4 [16]
0	0x3ca6f723	0.020381516
1	0x3e4f1ad5	0.2022508
2	0x3effaf43	0.49938402
3	0x3d49d273	0.049272966
4	0x3ef2c8a1	0.47418693
5	0x3d771e07	0.06033137
6	0xbeed1b99	-0.46310118
7	0xbe0ce4e6	-0.13759193
8	0x3e1268cb	0.14297788
9	0xbe0c82f4	-0.1372183
10	0x3e89e574	0.2693287
11	0xbfb181d0	-1.3867741
12	0xbe5eb842	-0.21749976
13	0x3fb071a7	1.3784684
14	0xbeab6116	-0.33472508
15	0x3db91549	0.09037263

fc1.weight f4 [120, 400]
0	0x3d4ac928	0.049508244
1	0xbd068f6b	-0.032851618
2	0xba50643d	-0.0007949507
3	0xbde5900f	-0.112091176
4	0xbde8fdce	-0.113765344
5	0xbd854808	-0.065078795
6	0xbcc6fccd	-0.024290467
7	0xbda8db1f	-0.08244919
8	0xbe1fa402	-0.15589908
9	0xbdbbd089	-0.09170634
10	0xbdf2d060	-0.118561506
11	0xbd45a041	-0.048248533
12	0xbd4e7e8e	-0.05041366
13	0xbe04995c	-0.12949127
14	0xbd9e46b2	-0.07728328
15	0xbde1b764	-0.11021307
16	0xbddf1bc2	-0.10893966
17	0xbdaecd6a	-0.085352734
18	0xbdd9362f	-0.10606038
19	0xbd8327f5	-0.064041056
20	0xbd7f1a45	-0.062280912
21	0xbd292126	-0.04129138
22	0xbd4d1736	-0.050070964
23	0xbdb9f8c1	-0.09080649
24	0xbd7c6890	-0.061623156
25	0xbc578acc	-0.01315565
26	0x3d47dfac	0.048797294
27	0xbc7c288b	-0.015390526
28	0xbd52d9e3	-0.051477324
29	0x3ab496bd	0.0013777834
30	0xbd8ac1e6	-0.067752644
31	0xbd8b7897	-0.0681011
32	0xbd86036c	-0.065436214
33	0xbd4011af	-0.046891864
34	0xbd37ea32	-0.04490108
35	0x3d4ae0fa	0.04953096
36	0xbd0099c6	-0.03139665
37	0xbd032656	-0.032018982
38	0xbc396cd2	-0.011317449
39	0x3c7ce3df	0.015435188
40	0x3d0211b8	0.03175518
41	0x3dc46b8a	0.09590824
42	0x3cebadad	0.028769339
43	0x3d00d8b4	0.031456664
44	0xbdc5f9c6	-0.09666781
45	0xbd1ed31c	-0.03877555
46	0x3d1a3249	0.037645612
47	0x3d5f1949	0.054467473
48	0x3d0eb024	0.03483595
49	0x3c90bb54	0.01766745
50	0xbd0b0d87	-0.033948448
51	0xbdaf2318	-0.085516155
52	0xbcaddf18	-0.021224543
53	0xbcdc1082	-0.02686334
54	0x3cddd9f1	0.027081462
55	0xbc8d2902	-0.017231468
56	0xbd18c871	-0.03730053
57	0xbda83554	-0.082132965
58	0xbd83db43	-0.06438305
59	0x3d7c0912	0.061532088
60	0xbcb56abc	-0.022145621
61	0xbd938b1e	-0.07204269
62	0x3c95f9c5	0.018307576
63	0xbaa38354	-0.0012475052
64	0xbcb7150b	-0.022348901
65	0xbcab3787	-0.020900501
66	0xbda88934	-0.082292944
67	0xbd033c87	-0.032040145
68	0x3cc4abe0	0.024007738
69	0xbc47fed2	-0.01220675
70	0xbc58aa49	-0.013224193
71	0xbdd597a1	-0.104293115
72	0xbe29cd82	-0.16582301
73	0xbdb54944	-0.08851865
74	0x3cbe3bd0	0.02322188
75	0xbd409386	-0.04701569
76	0x3d116ee0	0.03550613
77	0xbdbd8ac8	-0.09254986
78	0x3c66262b	0.014047186
79	0x3dd1f8c2	0.10252525
80	0xbd6b82e5	-0.057497878
81	0x3d3be260	0.045870185
82	0x3cfc0c44	0.030767567
83	0x3d2a7e20	0.04162419
84	0x3d4f84ff	0.050663944
85	0x3cc3e44c	0.023912571
86	0x3dc23fe8	0.094848454
87	0x3c55bdd4	0.013045747
88	0x3d4052d8	0.046954006
89	0x3d31c7c2	0.043403395
90	0x3ddff029	0.10934479
91	0x3d88d9ee	0.06682192
92	0xbd3bc713	-0.04584415
93	0x3d6bc48b	0.057560485
94	0x3c49bc71	0.012312994
95	0x3d0adc8e	0.033901744
96	0x3dc2c2f6	0.09509842
97	0x3d9f96d6	0.077924415
98	0xbd29cfdf	-0.041458007
99	0x3d0061dc	0.031343326
100	0xbc2d6c7c	-0.010584947
101	0x3d39eb2a	0.045390286
102	0x3d2197ff	0.039451595
103	0xbb97d5f7	-0.004633661
104	0x3cc0aafe	0.023519035
105	0x3b3778f3	0.0027995675
106	0xbd33aeb9	-0.0438678
107	0xbc57cb85	-0.013171081
108	0x3bc49630	0.005999349
109	0xbacff2a7	-0.0015865163
110	0x3cd94b68	0.026525214
111	0xbb8e1bb2	-0.0043367976
112	0xbbb18e16	-0.0054185493
113	0x39829ab6	0.000249108
114	0x3cd82c24	0.026388235
115	0x3d96d8e2	0.07365586
116	0xbc99cabe	-0.018773433
117	0xbda9a28f	-0.08282959
118	0xbbaceeef	-0.0052775065
119	0x3cfe3460	0.031030834
120	0x3c9ff8a5	0.019527743
121	0xbda16f0a	-0.07882507
122	0xbd3132d9	-0.043261383
123	0x3caaad7d	0.020834679
124	0x3da521d8	0.08063096
125	0xbe09f834	-0.13473588
126	0x3d827de0	0.06371665
127	0x3ddd5eb2	0.10809077
128	0x3cd45f3b	0.025924316
129	0xbd77d14a	-0.060502328
130	0xbd57d460	-0.05269277
131	0xbc435110	-0.011921182
132	0x3d8f44fe	0.06995581
133	0x3d428fe2	0.0475005
134	0x3c930320	0.017945826
135	0xbc8bb921	-0.01705605
136	0xbd3eb980	-0.046563625
137	0xbd33bc28	-0.04388061
138	0xbda5f54d	-0.08103428
139	0x3c3d471e	0.0115526
140	0xbd7120b0	-0.058869064
141	0xbd71f36a	-0.05907003
142	0xbdc7f864	-0.097641736
143	0xbd518da5	-0.051160473
144	0x3d2195a7	0.03944936
145	0xbce544af	-0.027986852
146	0xbd8268cf	-0.06367647
147	0xbd9dfb90	-0.07713997
148	0xbcb96b35	-0.022634128
149	0x3d7c4219	0.061586473
150	0xbcbe9902	-0.02326632
151	0x3d116c9b	0.035503965
152	0xbe19200e	-0.14953634
153	0xbde5d0aa	-0.1122144
154	0xbdcf6f9f	-0.10128712
155	0x3c9272f4	0.01787708
156	0xbcafbaf6	-0.021451455
157	0xbdbbdc3a	-0.09172864
158	0xbdf67699	-0.120343395
159	0xbdee86fa	-0.116468385
160	0xbd2854ad	-0.041096378
161	0xbd0b2459	-0.03397021
162	0xbdca0b66	-0.09865455
163	0xbdacc80d	-0.08436594
164	0xbdcd07d0	-0.10011256
165	0xbdbc24f9	-0.091867395
166	0xbd06435e	-0.03277909
167	0xbd296e7c	-0.04136513
168	0xbd13bf4c	-0.036071107
169	0xbdbef097	-0.093232326
170	0xbc01ce43	-0.007922712
171	0x39851c0f	0.00025388642
172	0xbd262e4d	-0.0405715
173	0xbe129ddf	-0.14318036
174	0xbe122b5d	-0.14274354
175	0xbdcbcce5	-0.0995119
176	0x3c28bf9e	0.010299591
177	0xbcd1481d	-0.025547082
178	0xbd4a756b	-0.049428385
179	0x3d90fb8b	0.07079228
180	0xbdd2ec7f	-0.10299014
181	0xbda7af0f	-0.08187687
182	0xbdc56b32	-0.096395865
183	0xbd59e569	-0.0531973
184	0x3de0cabe	0.1097617
185	0xbd82bd14	-0.0638372
186	0xbdeb48aa	-0.11488469
187	0xbdb0c147	-0.08630615
188	0xbcb005c2	-0.02148712
189	0x3e01fa2f	0.12693094
190	0x3d567896	0.052361093
191	0xbcd6da95	-0.026227275
192	0xbdb91406	-0.09037022
193	0x3ba7a863	0.005116509
194	0x3d1289c4	0.035775915
195	0x3e2a3728	0.16622603
196	0x3b136595	0.0022490968
197	0x3b42e2dc	0.002973727
198	0x3e0001dc	0.1250071
199	0x3dbf0b81	0.09328366
200	0x3e1c131a	0.15241662
201	0x3d9ad539	0.075602
202	0x3dd65c04	0.10466769
203	0x3cca9410	0.024728805
204	0x3d3a30c7	0.045456674
205	0x3db0d1d7	0.08633774
206	0x3d11915a	0.03553901
207	0x3b26b4ae	0.0025437283
208	0xbb05ac89	-0.0020397028
209	0x3d38a902	0.045083053
210	0x3d80d02f	0.06289708
211	0xbd468f1b	-0.04847632
212	0xbd0f5014	-0.034988478
213	0xbdfc88a5	-0.123307504
214	0xbd85b49e	-0.065285906
215	0x3dc315b3	0.09525623
216	0x3c42ed2e	0.011897368
217	0xbd9a33b4	-0.07529393
218	0xbe324698	-0.17409742
219	0x3bce9b48	0.006305132
220	0x3e4833fb	0.19551079
221	0x3dba3f70	0.09094131
222	0xbcbe1480	-0.023203135
223	0xbd6cb65e	-0.057791106
224	0x3d25d5af	0.040486988
225	0x3e7641b2	0.24048498
226	0x3d2bc125	0.041932244
227	0x3d6f7889	0.05846456
228	0x3c053438	0.008130126
229	0x3a13b92b	0.0005635197
230	0x3db8e855	0.09028689
231	0x3d993ea3	0.0748265
232	0x3dad46d8	0.08460778
233	0x3da467f4	0.0802764
234	0xbd82cfaa	-0.06387265
235	0x3e193f4e	0.14965555
236	0xbbb0f6b6	-0.005400504
237	0xbc17742a	-0.009244004
238	0x3cace9cf	0.021107582
239	0xbd273695	-0.040823538
240	0x3d0c2e82	0.03422404
241	0xbdbe20ab	-0.09283575
242	0xbd04b6a2	-0.032400735
243	0x3d98d13e	0.07461785
244	0x3d3e4da5	0.046460766
245	0xbd9a2c5e	-0.075279936
246	0xbda9c696	-0.082898304
247	0xbac53126	-0.0015044555
248	0x3c8ab024	0.016929694
249	0x3cc8497d	0.024449104
250	0x3dd87194	0.10568538
251	0x3d78c487	0.060734298
252	0x3d291710	0.04128176
253	0x3d20fff9	0.039306615
254	0x3e05836d	0.13038416
255	0x3de95b87	0.113944106

fc1.bias f4 [120]
0	0x3e37640b	0.17909257
1	0xbcebd64d	-0.02878871
2	0x3d6810d7	0.056656685
3	0x3d8ef256	0.06979816
4	0xbd403f3e	-0.046935312
5	0x3cc86fdf	0.024467407
6	0xbe27f218	-0.16400945
7	0x3db3e6ab	0.08784231
8	0x3dc0ef24	0.094206125
9	0xbccf2d19	-0.025290059
10	0x3db11687	0.08646875
11	0x3dfdd75d	0.12394593
12	0x3db3db07	0.087820105
13	0xbcaad8a9	-0.020855265
14	0xbd4ffaec	-0.050776407
15	0x3e3d6817	0.18496738
16	0x3d5f3b61	0.054499988
17	0xbe2021d3	-0.15637903
18	0xbc5a4e6c	-0.013324361
19	0xbb928252	-0.004471102
20	0x3d3d9cae	0.046292
21	0x3d6034be	0.0547378
22	0x3df01a8b	0.11723813
23	0x3ceaa988	0.028645292
24	0x3e1582ab	0.14600627
25	0xbd999d20	-0.07500672
26	0xbcc54953	-0.024082815
27	0x3ccefeab	0.02526792
28	0x3dcfad9a	0.10140534
29	0x3c3e12c6	0.011601156
30	0xbdbed29d	-0.09317515
31	0xbe5e3a20	-0.2170186
32	0x3d7d8aac	0.061899826
33	0xbd72d865	-0.0592884
34	0x3daac9a4	0.08339241
35	0x3e48f520	0.19624758
36	0x3d32b72e	0.043631725
37	0x3d0b0f33	0.033950042
38	0x3dad63ca	0.08466299
39	0xbd485fa1	-0.048919324
40	0xbcdc954c	-0.026926659
41	0x3de764cc	0.11298522
42	0xbd80cc82	-0.06289007
43	0xbd4f3e7f	-0.05059671
44	0x3cbcdfe7	0.023055984
45	0x3d53675f	0.051612254
46	0x3d580310	0.052737296
47	0x3de2a278	0.11066145
48	0x3cadf183	0.021233326
49	0x3d228a52	0.039682694
50	0xbd056bb4	-0.032573417
51	0x3e4dca4b	0.200967
52	0xbd890261	-0.06689907
53	0xbd1ac544	-0.037785783
54	0x3c160ae3	0.009157869
55	0xbd855beb	-0.065116726
56	0x39cb5388	0.00038781413
57	0x3e0fe849	0.14053454
58	0xbcba4c9e	-0.022741612
59	0x3b8c99af	0.0042907814
60	0x3dc5500e	0.0963441
61	0x3de11340	0.1099
62	0xbdbbc56a	-0.09168513
63	0x3ca6dc10	0.020368606
64	0x3cb7dc5d	0.022443945
65	0x3cb371dc	0.021904878
66	0x3dfcd3df	0.12345099
67	0xbc16268f	-0.0091644665
68	0x3d7cadfd	0.061689366
69	0x3d2df3fb	0.042469006
70	0x3be3782b	0.0069418154
71	0x3c41a6ec	0.011819582
72	0xbdf500d7	-0.11963051
73	0xbd3ac856	-0.04560121
74	0x3e1409aa	0.14456812
75	0xbd844fdd	-0.06460545
76	0x3c354278	0.011063211
77	0xbd16c871	-0.03681225
78	0x3cb7deac	0.022445045
79	0x3bf556bb	0.0074871457
80	0x3dfc4852	0.123184815
81	0x3e91b582	0.28458792
82	0xbd5c5856	-0.05379518
83	0x3d47f6e5	0.04881944
84	0x3ea5fbf4	0.32418787
85	0x3d483d1b	0.0488864
86	0xbc4fa82b	-0.012674372
87	0xbd0459b9	-0.03231213
88	0x3cbb6eef	0.022880046
89	0x3d5861c3	0.052827608
90	0xbdea504e	-0.11441098
91	0x3dc57531	0.09641493
92	0xbd3227e9	-0.043495093
93	0x3c28a61a	0.010293508
94	0x3d5aa5d1	0.05338079
95	0xbd52cfc5	-0.051467676
96	0x3d965d14	0.07341972
97	0x3d1a48a7	0.037666943
98	0xbd404a4b	-0.04694585
99	0x3d099774	0.033591703
100	0x3b9cb88c	0.004782742
101	0xbd424428	-0.04742828
102	0xbdb43699	-0.08799476
103	0x3e4babc9	0.1988975
104	0x3a4ce91e	0.00078167196
105	0x3e03f7b8	0.12887466
106	0x3d7d0089	0.06176809
107	0x3db66868	0.08906633
108	0xbc60c114	-0.013717908
109	0x3c4b423d	0.012405929
110	0xbd2c788b	-0.042107146
111	0x3d346ae9	0.04404727
112	0x3d018dea	0.03162948
113	0xbddc27b5	-0.10749761
114	0x3dbb27b4	0.09138432
115	0xbd9712de	-0.073766455
116	0x3e87166f	0.26384303
117	0x3cb381ee	0.021912541
118	0xbccb4315	-0.02481226
119	0x3cd2880b	0.025699636

fc2.weight f4 [84, 120]
0	0x3e09baeb	0.1345021
1	0x3c24d68b	0.010060917
2	0x3c73c8f9	0.014879459
3	0xbcbe2fac	-0.023216091
4	0x3d9557d7	0.07292145
5	0xbd66326a	-0.056200422
6	0xbda9150c	-0.082559675
7	0x3b0ed55a	0.0021794648
8	0x3dbacdbb	0.09121271
9	0xbd9f169a	-0.07767983
10	0x3d4b4a85	0.049631614
11	0xbd5e4203	-0.054262172
12	0xbd09ea25	-0.033670563
13	0x3d5cce3e	0.053907625
14	0xbd30f641	-0.043203596
15	0x3c82f120	0.015984118
16	0xbd244744	-0.040107027
17	0xbe04f3ee	-0.12983677
18	0x3de52c89	0.11190135
19	0xbd568d2c	-0.052380726
20	0x3d83bf66	0.06432991
21	0x3df60cdf	0.12014174
22	0x3d661459	0.05617175
23	0xbd399e6e	-0.045317106
24	0xbd277f0b	-0.040892642
25	0xbd9af686	-0.07566552
26	0xbdcaad62	-0.098963514
27	0x3ce54f61	0.027991952
28	0xbc78955c	-0.015172329
29	0x3d71fdcd	0.059079934
30	0xbd93fcef	-0.07225978
31	0x3d967d13	0.07348075
32	0x3d54ed0c	0.051983878
33	0x3d3b428c	0.04571776
34	0x3dc1714c	0.09445438
35	0xbd69bb08	-0.057063133
36	0x3d69b7ce	0.057060055
37	0xbd276ae1	-0.040873412
38	0xbd775d40	-0.060391665
39	0x3c419354	0.011814911
40	0xbc92c894	-0.017917909
41	0xbd99ee60	-0.075161695
42	0xbd090577	-0.033452477
43	0x3c926f70	0.017875403
44	0xbdf00b26	-0.117208764
45	0xbc72fb57	-0.014830432
46	0x3d8458cd	0.0646225
47	0xbd8c45e6	-0.068492696
48	0xbd254a05	-0.040353794
49	0xbd5f2753	-0.054480862
50	0x3ba13433	0.0049195527
51	0xbd13e818	-0.036110014
52	0x3da051d3	0.07828107
53	0x3c9bed25	0.019033978
54	0xbd30be43	-0.043150198
55	0xbd5e87c5	-0.0543287
56	0x3dfdeaee	0.12398325
57	0x3cc0410f	0.023468522
58	0x3da40998	0.08009642
59	0x3c0fd488	0.008778699
60	0xbd64e23b	-0.055879813
61	0xbd3f54db	-0.046711784
62	0xbca36165	-0.019943902
63	0xbd9852a4	-0.074376374
64	0x3db56a76	0.088581964
65	0xbdbeaa5c	-0.09309837
66	0x3ba3112c	0.0049764123
67	0xbd8658f4	-0.06559935
68	0x3d3155fa	0.043294884
69	0x3b209b8b	0.0024506773
70	0xbde6b6a4	-0.11265305
71	0x3d267985	0.040643234
72	0xbda95f1a	-0.08270092
73	0x3b3542f2	0.002765831
74	0x3d37178a	0.044700183
75	0xbd86211e	-0.06549285
76	0xbd96e8d8	-0.0736863
77	0x3da97122	0.082735315
78	0x3d8977f1	0.0671233
79	0x3d424438	0.04742834
80	0x3dac9fcf	0.084289186
81	0x3cce13bb	0.025155893
82	0xbdac8296	-0.08423345
83	0xbcc112ff	-0.023568628
84	0xbda22d3e	-0.079187855
85	0x3ddcdb3c	0.10784003
86	0x3b4eddc0	0.0031565279
87	0xbd1b3891	-0.037895743
88	0xbda62f1d	-0.08114455
89	0xbd5844d1	-0.052800003
90	0x3db5dff4	0.08880606
91	0x3daffc36	0.08593027
92	0x3c4517c1	0.012029589
93	0x3c4bcec7	0.012439436
94	0xbd744e26	-0.05964484
95	0xbd380293	-0.04492433
96	0xb9d4c559	-0.00040582826
97	0xbd311afa	-0.043238617
98	0x3d892d61	0.066981085
99	0xbdaa2dee	-0.08309542
100	0x3cf87900	0.030331135
101	0x3e021022	0.12701467
102	0xbda83539	-0.082132764
103	0x3c8d3acf	0.017239956
104	0x3cd2837d	0.025697464
105	0x3d902da2	0.07039954
106	0xbd3988ae	-0.045296364
107	0xbdcfe792	-0.101515904
108	0xbd2c528c	-0.04207091
109	0xbd719df6	-0.058988534
110	0xbd348b0a	-0.04407791
111	0x3d5383d7	0.051639404
112	0xbdc6960b	-0.09696587
113	0xbc1fddad	-0.0097574415
114	0xbd5269a4	-0.051370278
115	0x3d8dc8a3	0.06923034
116	0x3d7f994a	0.062402047
117	0xbce86ce5	-0.028372237
118	0x3d87b0e0	0.06625533
119	0x3c3bf677	0.011472336
120	0x3d9683a9	0.07349331
121	0xbdfd93ba	-0.12381692
122	0x3dc2ef2d	0.095182754
123	0xbbf2d776	-0.007410939
124	0xbdf04e2e	-0.117336616
125	0xbdcad1e3	-0.09903314
126	0xbdb7739d	-0.08957598
127	0xbd9e807a	-0.07739349
128	0xbd5302a4	-0.05151619
129	0xbc353e45	-0.0110622095
130	0xbd905052	-0.0704657
131	0xbd1536a5	-0.036429066
132	0x3d54350f	0.051808413
133	0x3d8f671c	0.070020884
134	0xbb60ce0a	-0.0034302496
135	0x3cad1506	0.021128189
136	0xbc64e717	-0.013971112
137	0x3c69e9f8	0.014276974
138	0x3cddcacd	0.027074242
139	0x3da055cd	0.07828865
140	0xbd5eda61	-0.05440748
141	0x3ce34671	0.02774355
142	0x3dc13f80	0.0943594
143	0xbd25b21e	-0.04045307
144	0x3d58be3e	0.052915804
145	0x3da609df	0.081073515
146	0xbc826f0b	-0.01592209
147	0xbd8b4e3a	-0.0680203
148	0x3e2c6283	0.16834454
149	0x3b9fcf4f	0.004877008
150	0xbdad0f0e	-0.08450137
151	0xbd5af06f	-0.05345195
152	0x3e0da984	0.13834196
153	0x3aa8777f	0.0012852995
154	0x3d99bf34	0.07507172
155	0xbdcf8961	-0.10133625
156	0xbd9071ec	-0.07052979
157	0xbb9dd979	-0.0048171845
158	0x3dab555a	0.08365889
159	0x3e08a0a6	0.13342533
160	0xbda0f76c	-0.07859692
161	0x3d8bb16d	0.06820951
162	0xbdb459c3	-0.08806183
163	0xbd98dfc1	-0.07464553
164	0x3d693581	0.05693579
165	0x3dc543bd	0.09632061
166	0x3cbd6724	0.02312047
167	0xbd222667	-0.039587405
168	0xbcf79642	-0.030223016
169	0x3d4fe782	0.050757892
170	0xbd85641d	-0.06513236
171	0xbdd3f3b3	-0.10349216
172	0xbe33a6ae	-0.17544052
173	0x3c3c3734	0.011487771
174	0x3d50ef4c	0.05100946
175	0x3d76f06b	0.060287874
176	0xbe21c19a	-0.1579651
177	0x3d4a0ec4	0.049330488
178	0xbe028a00	-0.12747955
179	0xbd9ae3d9	-0.0756299
180	0x3d98d41c	0.07462332
181	0x3b1422af	0.002260368
182	0xbcbc7128	-0.023003176
183	0xbd190955	-0.037362415
184	0x3dca4823	0.0987704
185	0xbc6f8ed6	-0.014621457
186	0x3e14a3df	0.14515637
187	0xbd1b2787	-0.037879493
188	0xbd4cc6ab	-0.049994152
189	0x3d6ca289	0.057772193
190	0x3c934c8e	0.01798084
191	0xbd48fb76	-0.049067937
192	0xbdd874ee	-0.105691776
193	0xbcd49362	-0.025949184
194	0xbd67657a	-0.05649326
195	0x3d4b4136	0.049622737
196	0x3d3bbb3a	0.04583285
197	0x3ccf110f	0.025276689
198	0xbd9a3ed4	-0.07531515
199	0xbc6079a5	-0.013700877
200	0x3da59896	0.08085744
201	0x3d977df0	0.073970675
202	0x3d18c686	0.0372987
203	0xbdf2f000	-0.118621826
204	0x3e01bbf3	0.12669353
205	0x3e117d53	0.14207964
206	0xbda2a411	-0.079414494
207	0xbda69743	-0.0813432
208	0xbe1877b5	-0.14889415
209	0xbd466793	-0.04843862
210	0xbcc150ae	-0.023598041
211	0x3d29be1d	0.04144107
212	0x3ccd88ba	0.02508961
213	0xbd831af8	-0.06401628
214	0x3dfa6887	0.12226968
215	0x3d1beea0	0.038069367
216	0x3d8552e1	0.065099485
217	0xbc91923a	-0.017769922
218	0xbda7fbf6	-0.082023546
219	0xbda21524	-0.079141885
220	0x3e2bd338	0.16779792
221	0xbdb6062d	-0.08887897
222	0xbc026e95	-0.007960935
223	0xbdcb5d88	-0.09929949
224	0xbdb28b45	-0.0871797
225	0xbe059793	-0.13046102
226	0x3dbac2c3	0.09119179
227	0xbd98fb8b	-0.07469853
228	0x3d137fd0	0.036010563
229	0xbcb0c0f3	-0.02157638
230	0x3e062951	0.13101698
231	0x3e02c728	0.12771285
232	0xbd456404	-0.048191085
233	0x3da712ec	0.08157906
234	0xbdbec19c	-0.09314272
235	0xbd4651d5	-0.048417885
236	0xbdc0c439	-0.094124265
237	0x3e1b46cd	0.15163727
238	0xbd856cda	-0.065149024
239	0x3a3b45c7	0.00071438815
240	0xbc1ab673	-0.009442913
241	0x3d902d6a	0.07039912
242	0x3d41f265	0.047350306
243	0xbd765efc	-0.060149178
244	0x3d59235f	0.053012248
245	0x3d675569	0.056477938
246	0xbac6c0e5	-0.0015163688
247	0x3d1645e6	0.036687754
248	0x3d97c245	0.07410101
249	0xbdbb37f6	-0.09141533
250	0xbd8e9478	-0.06961912
251	0xbc0b07ab	-0.008485715
252	0x3d52fcca	0.05151061
253	0xbd74b1ab	-0.05973975
254	0xbbc7c6d4	-0.0060967
255	0xbd16fa32	-0.0368597

fc2.bias f4 [84]
0	0xbc69fba4	-0.014281187
1	0x3e95e351	0.2927499
2	0xbd461bbd	-0.048366297
3	0x3d96a7d5	0.0735623
4	0x3e98d6d0	0.2985139
5	0xbdb4d86a	-0.0883034
6	0xbcb513e9	-0.02210422
7	0x3df2fddd	0.11864827
8	0x3e69ec44	0.22844034
9	0x3e82e901	0.25568393
10	0xbd893549	-0.066996165
11	0xbd33cf1c	-0.043898687
12	0x3d374d2a	0.044751324
13	0x3e31b503	0.17354207
14	0xbdb1308b	-0.08651837
15	0xbdc51be0	-0.09624457
16	0xbcbaf555	-0.022822062
17	0x3e6f0e75	0.23345359
18	0x3d15d2e1	0.036578063
19	0xbd82e5bd	-0.06391475
20	0x3dee1a1e	0.11626075
21	0xbe09837d	-0.13429065
22	0x3dd380cb	0.103273
23	0xbd12ffff	-0.03588867
24	0x3e9f56d1	0.31120923
25	0x3d79579c	0.060874566
26	0xbbde7798	-0.006789159
27	0x3edf9ad2	0.43672806
28	0xbd36606d	-0.044525553
29	0x3e0c0183	0.13672452
30	0x3dc3f6ae	0.09568535
31	0xbd0c2bc4	-0.034221426
32	0x3db67f45	0.089109935
33	0xbcda517d	-0.026650185
34	0xbdbf66ee	-0.09345804
35	0x3e23de25	0.1600271
36	0x3f07fb00	0.5311737
37	0xbd1fbee0	-0.039000392
38	0x3c2287e0	0.00992009
39	0x3daa90d4	0.08328405
40	0xbdaa676a	-0.08320506
41	0x3e84ba92	0.25923592
42	0x3add253b	0.0016872057
43	0x3ede05a3	0.43363675
44	0x3e358bc3	0.17729096
45	0x3e5175d8	0.2045511
46	0xbd955052	-0.072907105
47	0x3d0f65bc	0.03500913
48	0x3e59599c	0.2122559
49	0x3d413945	0.047173757
50	0x3e1b3580	0.15157127
51	0x3e581f09	0.21105589
52	0x3e6879be	0.22702691
53	0x3d92699d	0.071490504
54	0x3e9ad860	0.30243206
55	0x3d79b1c0	0.06096053
56	0x3da12383	0.078681014
57	0xbd8b7e6b	-0.06811222
58	0x3e409b67	0.18809281
59	0x3da3ff0d	0.080076315
60	0x3d0c60b1	0.0342719
61	0x3e17e2be	0.14832589
62	0xbcf859df	-0.030316291
63	0x3e2d581e	0.16928145
64	0x3d01a50d	0.031651545
65	0xbdae0106	-0.08496289
66	0x3d68ce6a	0.056837477
67	0xbd4e8849	-0.05042294
68	0x3df4a6fa	0.11945911
69	0xbd6ff830	-0.0585863
70	0xbd8adcbb	-0.06780382
71	0xbc7a63b3	-0.015282559
72	0x3e36ad82	0.17839625
73	0x3df0a86a	0.117508724
74	0x3eaaa902	0.33332068
75	0xbd6bac35	-0.057537276
76	0x3dad31bc	0.08456752
77	0x3ce0067d	0.027346844
78	0xbac14316	-0.0014744725
79	0x3d819378	0.063269556
80	0x3da226ba	0.07917543
81	0x3ee6175d	0.449397
82	0xbc1056f0	-0.00880979
83	0xbc8b36c0	-0.01699388

fc3.weight f4 [10, 84]
0	0xbe0e0e8a	-0.13872734
1	0x3ea25cac	0.31711328
2	0xbdcf79c0	-0.10130644
3	0xbd1280ff	-0.03576755
4	0x3e47489d	0.19461294
5	0x3cd8272c	0.026385866
6	0x3d985deb	0.074397884
7	0x3e4702ba	0.19434634
8	0x3e2856de	0.16439387
9	0x3e86abc8	0.26302934
10	0x3aebe31a	0.0017996759
11	0x3d599664	0.05312194
12	0xbbe808d8	-0.0070811324
13	0x3e4799b4	0.19492227
14	0x3dd62fdb	0.104583465
15	0xbde69d15	-0.1126043
16	0x3d80421f	0.062626116
17	0xbda68d0e	-0.08132373
18	0xbc06674e	-0.008203341
19	0x3e00dc63	0.12584071
20	0x3df5d588	0.120036185
21	0x3dded348	0.108801425
22	0xbe069afa	-0.13145056
23	0x3b60eb18	0.0034319814
24	0x3e7ce918	0.24698293
25	0x3d656d4a	0.05601243
26	0xbdbeaefd	-0.0931072
27	0xbe01460d	-0.12624379
28	0xbda42cbf	-0.08016347
29	0x3eb0d8f9	0.34540537
30	0xbda7016f	-0.0815457
31	0x3e4bfc53	0.19920473
32	0xbcb54e8f	-0.022132186
33	0xbd763724	-0.06011118
34	0xbc85c0da	-0.01632731
35	0xbc35dfa4	-0.011100683
36	0xbea3fe52	-0.32029969
37	0xbcbefd8f	-0.023314266
38	0x3e769bd8	0.24082887
39	0x3e14f65c	0.14547104
40	0xbd5c7869	-0.05382577
41	0x3e7a880f	0.24465965
42	0xbc9267c1	-0.01787174
43	0x3dcfc4a1	0.10144926
44	0xbe5f75bc	-0.21822256
45	0x3ddf69bb	0.10908838
46	0x3ce1e659	0.027575659
47	0xbde5b54a	-0.11216219
48	0x3c5d90eb	0.013523321
49	0x3c8ee104	0.01744128
50	0xbc1860a1	-0.009300382
51	0xbbf37534	-0.007429743
52	0x3ba44a51	0.005013742
53	0x3b6d8690	0.0036243536
54	0xbe6c7439	-0.2309121
55	0xbdb955cd	-0.09049568
56	0x3d754b47	0.059886243
57	0x3d494744	0.04914023
58	0xbe10ba4e	-0.1413357
59	0x3e1eb7af	0.15499757
60	0x3d9f9314	0.07791725
61	0x3db0bef8	0.086301744
62	0x3daac6b0	0.08338678
63	0x3debcca9	0.11513645
64	0xbcf57d86	-0.02996708
65	0xbe045081	-0.12921335
66	0xbd193059	-0.037399624
67	0xbce5b87b	-0.028042069
68	0xbe48d3c7	-0.19612037
69	0xbd5ed78b	-0.054404777
70	0x3bfcd04f	0.007715262
71	0x3e693f02	0.22777942
72	0xbe91609d	-0.28394023
73	0xbe0e1bbd	-0.13877769
74	0x3d601fe7	0.054717924
75	0xbca0d60d	-0.019633317
76	0xbe11081a	-0.14163247
77	0xbad60e73	-0.001633121
78	0xbd6f6a33	-0.05845089
79	0xbd65077c	-0.05591534
80	0x3e265b31	0.16245724
81	0xbe579be8	-0.21055567
82	0xb9b7fc26	-0.00035092345
83	0xbdaf0a9c	-0.085469455
84	0x3c99e6b3	0.018786764
85	0xbe7ef3e7	-0.24897729
86	0xbd0b8bef	-0.034068998
87	0x3d9f9fc1	0.077941425
88	0xbdb3a7b3	-0.087722205
89	0x3e2f9918	0.17148244
90	0xbcd04148	-0.025421754
91	0x3e616af1	0.22013451
92	0xbd46055a	-0.048344947
93	0xbda614d2	-0.0810944
94	0xbd34ffdd	-0.044189323
95	0x3cd77529	0.026300984
96	0xbd88095f	-0.066424124
97	0xbd302c33	-0.0430109
98	0xbd8fe2e8	-0.07025701
99	0x3d959517	0.07303827
100	0x3d4fdd7a	0.050748326
101	0xbe3a2374	-0.18177587
102	0xbca13bdf	-0.01968187
103	0xbde01663	-0.1094177
104	0x3dd530b7	0.10409682
105	0x3ef1b4db	0.47208294
106	0xbd53270f	-0.05155092
107	0x3ca47e2e	0.020079698
108	0xbc864b04	-0.016393192
109	0x3dd66e9d	0.104703166
110	0xbd04f7c8	-0.032462865
111	0xbdb921a6	-0.09039621
112	0xbd056f17	-0.032576647
113	0xbe259b40	-0.16172504
114	0x3e3761b3	0.17908363
115	0x3d851cdf	0.06499647
116	0xbd27be7d	-0.04095315
117	0xbc938cb3	-0.018011427
118	0x3dc25021	0.094879396
119	0xbc9d5f78	-0.019210562
120	0x3d5a1f41	0.053252462
121	0x3e234ec0	0.1594801
122	0xbdc7c034	-0.09753457
123	0x3d935706	0.07194333
124	0x3d1bd615	0.03804596
125	0x3eb3cc7d	0.3511695
126	0xbdd93bdc	-0.106071204
127	0xbeb90680	-0.36137772
128	0x3e0f4130	0.13989711
129	0x3e4086cc	0.18801421
130	0x3b408f20	0.0029382184
131	0x3cf30803	0.029666906
132	0xbe4e8bb9	-0.20170487
133	0x3d807077	0.06271451
134	0x3e881498	0.26578212
135	0xbded6292	-0.115910664
136	0xbe36ef34	-0.17864686
137	0xbda9185e	-0.08256601
138	0xbe9faeb2	-0.3118797
139	0xbd8909de	-0.06691335
140	0x3e03e4b8	0.12880218
141	0xbd18f7da	-0.037345745
142	0xbf0d6586	-0.5523304
143	0x3e015bbc	0.1263265
144	0xbdfed549	-0.12443025
145	0xbd90f8ad	-0.07078681
146	0x3e408048	0.18798935
147	0x3c4b39f7	0.012403957
148	0x3db8e5c4	0.09028199
149	0x3e64b63a	0.22335139
150	0xbcb89721	-0.022533001
151	0x3dba93ad	0.09110198
152	0x3c951731	0.018199535
153	0xbe66f73e	-0.22555253
154	0x3e7c1f86	0.246214
155	0x3e36ead5	0.17863019
156	0x3ceda34e	0.029008534
157	0x3cef57d4	0.029216684
158	0xbe616c10	-0.22013879
159	0xbd99b490	-0.07505143
160	0xbe54b745	-0.20773037
161	0xbd746a24	-0.059671536
162	0xbd3af1d4	-0.04564078
163	0x3e8f9f3c	0.28051174
164	0xbe13f1b0	-0.14447665
165	0xbe2ebb4d	-0.17063637
166	0xbd1dc230	-0.03851527
167	0xbd8c6f2f	-0.06857144
168	0x3e088410	0.13331628
169	0x3e60fa2c	0.21970433
170	0xbdb3525b	-0.087559424
171	0xbe092e44	-0.13396555
172	0xbde42985	-0.11140732
173	0x3e90c47f	0.28274915
174	0xbcfd915f	-0.030953107
175	0xbe4acff0	-0.19805884
176	0x3d1f8d12	0.038952895
177	0x3d887b50	0.06664145
178	0xbc8678a5	-0.01641495
179	0xbcf9b768	-0.030482963
180	0xbddfc695	-0.109265484
181	0x3c4ea2de	0.012612073
182	0xbda3d739	-0.08000035
183	0x3d4c0ccc	0.04981689
184	0x3d041821	0.032249574
185	0x3e2b0e9f	0.16704796
186	0xbdf1e99f	-0.11812138
187	0x3d9bc0b7	0.07605117
188	0xbda648dd	-0.08119366
189	0xbdbc555e	-0.0919597
190	0x3bd0a092	0.0063667977
191	0x3d09568e	0.03352981
192	0x3e7f72b1	0.24946095
193	0x3d21520a	0.03938488
194	0x3d3650da	0.0445107
195	0x3db43f7e	0.08801173
196	0xbdca528f	-0.09879028
197	0xbc6041ba	-0.013687545
198	0xbdff7773	-0.12473955
199	0xbd226379	-0.039645646
200	0xbcf0643f	-0.029344676
201	0x3c798578	0.015229575
202	0xbbeb60e4	-0.007183181
203	0x3dd6cc17	0.10488146
204	0x3c13a271	0.009010897
205	0xbcf5c16f	-0.029999463
206	0x3e11acee	0.14226124
207	0xbe1ab1fb	-0.15106957
208	0x3c828ebc	0.015937202
209	0xbcad0b12	-0.021123443
210	0x3e33db9c	0.17564243
211	0x3d628ebf	0.055311915
212	0x3ddb2ca4	0.10701874
213	0x3cb2b94f	0.021816878
214	0x3d4ce1f4	0.050020173
215	0x3c8cdc33	0.017194843
216	0x3dd10cd1	0.10207523
217	0x3db2c666	0.08729248
218	0xbe4397f0	-0.19100928
219	0x3eafb16c	0.3431505
220	0x3dc56c5a	0.09639807
221	0x3e109239	0.1411828
222	0xbc4b03cc	-0.012391042
223	0x3d32925c	0.04359661
224	0x3d96afa2	0.07357718
225	0x3d442da8	0.047895104
226	0x3e22238b	0.15833871
227	0xbe197fab	-0.14990108
228	0x3e829452	0.25503784
229	0xbe05fbcd	-0.13084336
230	0xbe39de83	-0.18151288
231	0x3e35b4f9	0.17744817
232	0x3d375a6a	0.04476396
233	0xbda9c2e3	-0.08289125
234	0xbd43ac12	-0.04777152
235	0xbd360389	-0.044436965
236	0xbde9b61a	-0.11411686
237	0x3db1e612	0.086864606
238	0x3b9fb69c	0.0048740637
239	0xbd9f7352	-0.077856675
240	0x3c500154	0.012695629
241	0x3d95e888	0.073197424
242	0xbdfa8fa1	-0.12234426
243	0xbda15b2a	-0.07878716
244	0x3e8f0b16	0.27938145
245	0xbd4057f7	-0.04695889
246	0xbdee7ae7	-0.116445355
247	0xbcd125e1	-0.025530757
248	0x3e5818a2	0.21103147
249	0x3e7aa52c	0.2447707
250	0x3e6204b7	0.22072111
251	0xbdf8fff3	-0.121581934
252	0x3e073eb6	0.13207516
253	0xbe121dae	-0.14269134
254	0x3db2b325	0.08725575
255	0x3e5c5f6a	0.21520773

fc3.bias f4 [10]
0	0xbe98f7be	-0.29876512
1	0xbf190977	-0.5978007
2	0x3d86da4d	0.06584606
3	0x3edec507	0.43509695
4	0x3f13c32b	0.5771968
5	0xbdf02719	-0.11726207
6	0x3e5d95df	0.21639203
7	0xbea0f649	-0.314379
8	0x3e8bd14b	0.27308115
9	0xbe821b6f	-0.25411555
