mnist_net.pth (torch, 439719 bytes, 6 tensors)

fc1.weight f4 [128, 784]
-0.003816246 0.04910778 0.021379774 0.01020895 0.017153012 0.046595816 0.035871953 0.052810643
0.019592434 0.01770057 0.023435447 0.052082818 -0.01253555 0.047798272 0.019250223 -0.008629354
0.034022514 0.0023334497 0.052457493 -0.0047572427 -0.0076837814 0.02915547 0.010030593 0.051566344
0.026758732 -0.017006597 0.022049394 0.044781856 0.0026290487 0.019258032 0.036779206 0.012035445
0.020362567 0.012471905 0.05173075 -0.0040603797 0.036938854 0.0024569368 0.034264315 0.051753577
-0.01311076 -0.011026677 0.0056178086 0.0071279337 0.01537217 -0.012625838 0.009812149 -0.0071314224
0.023416769 0.04720814 -0.00044882396 0.026465213 0.012531765 0.026235523 0.04694626 0.02180643
0.04742836 0.01192725 0.020577276 0.037748624 0.03547591 0.010859727 -0.0064050187 0.012562981
0.049052563 0.035048235 0.045147303 0.035327334 -0.0063196803 0.030981904 0.008128499 0.03318032
-0.013784561 0.013014107 0.006356404 0.0033691714 -0.0060012 0.021804363 -0.006938581 0.02976115
0.025056431 -0.006548403 0.026364328 0.039318077 0.016093584 0.025524588 0.03910981 0.033122502
-0.0076575456 -0.008272851 0.03653853 0.0013354889 0.008115378 0.0006124675 0.047428925 0.004441927
0.036036722 0.010978067 -0.0007685693 0.05112771 0.007280962 0.03843656 -0.015256715 -0.0076541565
0.046198882 0.0043853177 -0.0046584094 -0.003105486 0.007469632 0.0094557265 -0.0048730043 0.0077379225
0.024452047 0.01608591 0.023007598 0.043446045 0.01663317 0.0019657584 0.032075357 -0.01739605
-0.010570981 0.0037397533 -0.0056495867 -0.016307764 0.05324298 -0.0126077095 0.0061284807 0.012823545
-0.011370435 0.05059783 -0.0074199513 -0.007829686 0.024760751 0.028662503 0.0030382762 -0.013805752
0.03928573 -0.009186831 0.02055204 0.0052724504 0.0051198984 0.017690806 0.010768286 0.01348291
-0.009191709 0.051461305 0.022986762 0.004370667 0.018899813 0.033055793 0.01208859 0.028903432
-0.011432837 0.044084087 0.014276003 0.011755745 0.05030866 0.0016338833 0.050955713 0.052475613
0.049956877 0.014428161 0.012487374 0.0059578777 0.041761175 -0.011844835 0.007057455 0.042790014
-0.012896208 -0.0064373096 0.008126098 0.030098502 -0.010328087 0.05181221 0.00088426063 0.026475247
0.040841002 0.034615286 0.036711246 0.024600366 0.043260816 -0.022491498 -0.010754957 -0.006808069
0.013625728 0.009724324 -0.015454934 0.02131136 0.04944728 0.04187694 -0.009128582 -0.00050129724
0.0066594398 0.047747586 -0.008400524 0.030971246 0.024088984 0.04190597 0.03432005 0.0053875125
-0.014111284 -0.017582705 0.044485174 0.034336563 0.020964025 -0.013131598 0.0040972955 0.007603249
0.032111473 -0.0388441 0.0060711727 0.012810896 0.03116662 0.015395157 0.0068059587 0.017550446
0.025724772 0.05104378 0.03744583 0.0014414204 0.021685412 -0.012121718 -0.017578112 0.018252444
0.03876105 0.014994344 0.041029852 0.0028228236 -0.011493407 0.051443707 0.007370625 0.020642946
0.0060485024 0.024729647 0.021536151 0.04707679 -0.005931269 -0.0033138562 0.00885714 0.028015284
0.024423327 0.020024631 0.045251828 0.040307224 0.032940593 0.03253468 0.009547924 -0.0070090927
0.035577126 -0.0070859343 0.030596647 -0.0017044042 0.025181899 0.011618855 0.021828812 0.048331704
00000000: fc19 7abb 3d25 493d a324 af3c 7143 273c
00000010: 7984 8c3c 41db 3e3d 78ee 123d f94f 583d
00000020: 5080 a03c c900 913c b2fb bf3c cb54 553d
00000030: e861 4dbc 1fc8 433d a5b2 9d3c 2262 0dbc
00000040: 315b 0b3d caec 183b abdd 563d a5e2 9bbb
00000050: 3bc8 fbbb 74d7 ee3c 5b57 243c 3b37 533d
00000060: 2135 db3c 6b51 8bbc eea0 b43c 2e6d 373d
00000070: 1e4c 2c3b 05c3 9d3c cba5 163d 5130 453c
00000080: 66cf a63c f656 4c3c 9fe3 533d ef0c 85bb
00000090: 324d 173d 8f04 213b bd58 0c3d 8ffb 533d
000000a0: 83ce 56bc 3ca9 34bc 9815 b83b 7191 e93b
000000b0: 8edb 7b3c 9adc 4ebc 23c3 203c b5ae e9bb
000000c0: 86d4 bf3c 535d 413d 2250 ebb9 93cd d83c
000000d0: 0852 4d3c e1eb d63c b94a 403d 66a3 b23c
000000e0: 3d44 423d 836a 433c ad91 a83c 4d9e 1a3d
000000f0: 304f 113d ffec 313c 31e1 d1bb f6d4 4d3c
00000100: 57eb 483d bd8e 0f3d 61ec 383d 65b3 103d
00000110: 5215 cfbb c3cd fd3c 652d 053c 16e8 073d
00000120: a4d8 61bc 1f39 553c 6249 d03b 51cd 5c3b
00000130: b7a5 c4bb 109f b23c 095d e3bb a8cd f33c
00000140: 2543 cd3c fc93 d6bb 01fa d73c fe0b 213d
00000150: b1d6 833c f118 d13c 9c31 203d 76ab 073d
00000160: 26ec fabb da8a 07bc 6da9 153d 920b af3a
00000170: 5df6 043c 008e 203a d544 423d 968d 913b
00000180: 3e9b 133d 5add 333c d079 49ba 4a6b 513d
00000190: 2395 ee3b a86f 1d3d 4df7 79bc b8cf fabb
000001a0: 0a3b 3d3d b6b2 8f3b 92a5 98bb 6985 4bbb
000001b0: d1c3 f43b 31ec 1a3c b9ad 9fbb 668e fd3b
000001c0: a94f c83c 99c6 833c 6e7a bc3c 7bf4 313d
000001d0: 4942 883c f4d3 003b 7361 033d 2982 8ebc
000001e0: e831 2dbc a616 753b 2b20 b9bb dc97 85bc
000001f0: 5015 5a3d 9190 4ebc 6cd1 c83b d919 523c
00000200: 104b 3abc ac3f 4f3d 1023 f3bb 1548 00bc
00000210: 0fd7 ca3c a0cd ea3c d11d 473b 8531 62bc
00000220: 13ea 203d 5d84 16bc c05c a83c 85c4 ac3b
00000230: d2c4 a73b 4fec 903c 776d 303c 6ce7 5c3c
00000240: d298 16bc 17c9 523d bc4e bc3c d037 8f3b
00000250: c8d3 9a3c 8365 073d 390f 463c e4c6 ec3c
00000260: cb50 3bbc 8491 343d e6e5 693c 2b9b 403c
00000270: 7410 4e3d 0728 d63a f0b6 503d abf0 563d
00000280: 959f 4c3d 1864 6c3c d897 4c3c 4d3a c33b
00000290: c40d 2b3d d710 42bc 3942 e73b 9544 2f3d
000002a0: 9e4a 53bc 11f0 d2bb 5323 053c 2291 f63c
000002b0: 2337 29bc 0a39 543d bacd 673a 9ee2 d83c
000002c0: e548 273d c2c8 0d3d 885e 163d b586 c93c
000002d0: 4132 313d 1740 b8bc 8f35 30bc 3916 dfbb
000002e0: 723e 5f3c c552 1f3c b136 7dbc 2995 ae3c
000002f0: 3b89 4a3d 2787 2b3d 0c90 15bc 7d69 03ba
00000300: 6e37 da3b f992 433d 5aa2 09bc 69b7 fd3c
00000310: 4356 c53c 98a5 2b3d 2e93 0c3d bb89 b03b
00000320: 0433 67bc 9b09 90bc 1636 363d 7fa4 0c3d
00000330: bfbc ab3c ea25 57bc 9b42 863b ad24 f93b
00000340: 5287 033d fe1a 1fbd b0f0 c63b cbe4 513c
00000350: 2451 ff3c f83b 7c3c 8504 df3b f4c5 8f3c
00000360: c2bc d23c 4813 513d cc60 193d 0bee bc3a
00000370: 9ba5 b13c 2c9a 46bc f9ff 8fbc 2686 953c
00000380: e8c3 1e3d d6aa 753c eb0e 283d 1fff 383b
00000390: d84e 3cbc a3b6 523d 4985 f13b 651b a93c
000003a0: 8432 c63b d495 ca3c 956c b03c 98d3 403d
000003b0: 175b c2bb 482d 59bb 8a1d 113c 4f80 e53c
000003c0: 6e13 c83c b20a a43c fb59 393d 3019 253d
000003d0: b7ec 063d 1643 053d e56e 1c3c 88ac e5bb
000003e0: 52b9 113d 2031 e8bb d2a5 fa3c 5166 dfba
000003f0: 454a ce3c 035d 3e3c 56d2 b23c 77f7 453d

fc1.bias f4 [128]
-0.005206524 -0.030823523 -0.10907121 -0.025113743 -0.025050458 0.009991816 0.042263377 0.0015061449
-0.023225745 -0.08786629 -0.0067706695 -0.011055152 -0.028139863 -0.03417159 -0.0412344 -0.08475939
-0.010993189 -0.039356034 -0.013173333 -0.07652622 -0.075178914 -0.02610812 -0.097462505 0.007666472
-0.033872448 -0.12543094 0.040761523 -0.046200246 -0.09301467 -0.076163 0.004218421 -0.08824256
-0.009897277 0.0020995887 0.011323352 0.01577902 -0.102486715 -0.0012595237 -0.025707342 -0.03937886
-0.023063654 -0.1660834 -0.05088461 -0.0009962086 -0.065373644 0.016121121 -0.02352436 -0.05042536
-0.020115603 -0.0633502 0.010680524 0.047430854 -0.04066287 -0.028379256 -0.01652129 -0.10468019
-0.018008616 -0.016693028 -0.059964575 -0.115611196 -0.011304903 -0.113244906 -0.09424336 -0.00021779946
-0.08420295 -0.05276451 -0.026264997 -0.109841004 -0.0036533515 -0.03269936 -0.064018026 -0.012485654
0.017239554 -0.12974752 0.000796174 -0.11570291 -0.048772782 0.009629524 -0.03047614 0.013049583
-0.051850814 -0.030150346 -0.022638157 -0.080130935 -0.0019727906 -0.061455287 0.05894822 -0.0471949
-0.06013022 -0.03649497 -0.05130369 0.007568835 0.07558755 -0.056316637 -0.031893678 -0.01321915
0.035913777 -0.020982172 0.0019819925 -0.032803956 -0.0021763043 0.009663757 -0.0721963 -0.024968358
-0.046703734 -0.03203038 0.0037611134 -0.0055733137 -0.0997289 -0.030597841 0.0066772173 0.014696445
0.053660057 -0.040037397 -0.03772673 -0.02030773 -0.030229157 -0.048917316 -0.04264509 0.004641446
-0.030212773 0.006192386 -0.025796859 -0.007883229 -0.05418196 -0.014171188 -0.015209351 -0.08472902
00000000: 7d9b aabb 9d81 fcbc ba60 dfbd 56bb cdbc
00000010: 9e36 cdbc b7b4 233c 5d1c 2d3d d669 c53a
00000020: eb43 bebc 3ef3 b3bd 7edc ddbb ab20 35bc
00000030: 9285 e6bc 82f7 0bbd 67e5 28bd 5596 adbd
00000040: c71c 34bc cb33 21bd f7d4 57bc c7b9 9cbd
00000050: 67f7 99bd b2e0 d5bc 6c9a c7bd 0737 fb3b
00000060: d6bd 0abd f870 00be 8ef5 263d 783c 3dbd
00000070: 7a7e bebd 59fb 9bbd ae3a 8a3b 84b8 b4bd
00000080: 3028 22bc 4199 093b 9585 393c 0143 813c
00000090: 8ee4 d1bd 9a16 a5ba 3498 d2bc ba4b 21bd
000000a0: fdef bcbc c411 2abe 616c 50bd 3793 82ba
000000b0: 9ee2 85bd 7110 843c 29b6 c0bc d38a 4ebd
000000c0: 7ac9 a4bc c0bd 81bd 5dfd 2e3c db46 423d
000000d0: 1c8e 26bd 9d7b e8bc a857 87bc 9162 d6bd
000000e0: ce86 93bc d1bf 88bc 6a9d 75bd 90c5 ecbd
000000f0: 3338 39bc f2ec e7bd aa02 c1bd 1961 64b9
00000100: 9972 acbd 991f 58bd b129 d7bc 52f4 e0bd
00000110: 116d 6fbb c4ef 05bd e21b 83bd a190 4cbc
00000120: f739 8d3c 89dc 04be 55b6 503a a6f5 ecbd
00000130: f8c5 47bd 27c5 1d3c 19a9 f9bc ebcd 553c
00000140: 8561 54bd dcfd f6bc a873 b9bc b01b a4bd
00000150: ef49 01bb 8ab8 7bbd b073 713d 714f 41bd
00000160: 1b4b 76bd c07b 15bd d123 52bd fd03 f83b
00000170: a5cd 9a3d 46ac 66bd f2a2 02bd 2295 58bc
00000180: 531a 133d cee2 abbc 51e4 013b 715d 06bd
00000190: 54a0 0ebb bc54 1e3c a7db 93bd 718a ccbc
000001a0: 6a4c 3fbd 4a32 03bd 037d 763b 58a0 b6bb
000001b0: aa3e ccbd 53a8 fabc 8fcc da3b 5cc9 703c
000001c0: a6ca 5b3d 41fe 23bd 5887 1abd 665c a6bc
000001d0: 23a3 f7bc 865d 48bd 9eac 2ebd 4517 983b
000001e0: c780 f7bc 80e9 ca3b ef53 d3bc a928 01bc
000001f0: e7ed 5dbd 452e 68bc a430 79bc 6986 adbd

fc2.weight f4 [64, 128]
0.087830596 0.012577986 -0.0070942105 0.002956318 0.0626247 -0.06779023 0.18982404 0.10898689
0.00967501 -0.40275574 -0.032724474 0.0022254316 -0.05809668 0.18682 -0.40019155 -0.01435413
0.009846466 -0.076213986 -0.07951936 -0.5190801 -0.54396355 -0.013192382 -0.16150942 -0.08489512
-0.044615462 -0.2565264 0.24179278 -0.0045366287 -0.11890652 0.13597852 0.056194052 -0.04354186
-0.06873803 0.065332584 0.01922233 -0.41937017 -0.55787814 0.028108995 0.04053896 -0.024099043
-0.56388193 -0.03057969 0.03722058 0.03630057 -1.2067548 -0.06893621 0.094672285 -1.0115101
-0.08076904 -0.22711278 -0.37088102 -0.89948606 -0.31889024 0.07182484 -0.016029956 -0.4894326
-0.035166163 -0.06713383 -0.008101206 -0.37431586 0.045776606 -0.051918037 0.39708713 0.016154423
-0.0855558 -0.04482189 0.03144548 0.20281969 0.056100857 0.032993402 -0.68355685 0.01141673
0.043646406 -0.50913864 -0.3110513 0.35649538 0.098243 -0.2713831 -0.056914914 0.087759495
0.29453194 0.100183435 -0.047303736 0.00516963 -0.053663507 -0.16539118 -0.1454246 0.060138624
0.1537461 -0.017595269 0.08146949 -0.06558857 0.10789978 0.021296069 0.05692243 0.03777837
0.04282156 -0.004731964 -0.026303995 -0.19799134 -0.48150998 -0.058500256 0.23814419 0.013521656
0.04421588 -0.0026298636 0.08117293 -0.519452 -0.19419569 -0.05858524 0.013866998 0.023285972
-0.7833089 0.20693706 0.026973959 -0.088170275 -0.08195768 -0.026320977 -0.3954479 -0.06328859
0.07104345 0.6593922 -0.04282459 0.093073346 0.37128216 -0.82328457 -0.05134162 0.24763039
-0.03769939 0.082006514 0.24764061 -0.043344166 -0.08251739 0.0041312436 -0.10580938 -0.05925778
0.04207751 -0.116911024 -0.067330554 0.07578648 0.058796056 -1.0057703 0.108990476 0.11112261
0.0048406976 -0.059625585 -0.009423909 -0.4516515 0.23109931 0.11754442 -0.46885744 0.09490922
0.016726598 0.037987553 0.1467031 0.039968565 0.26265663 -0.34229988 0.042647503 -0.698933
-0.025382929 -0.0568231 -0.26944497 0.30577978 0.050169107 -1.2468534 0.076299265 0.0621013
-0.4759453 0.1189393 2.1332413e-05 -0.022491243 0.30876303 -0.080106355 -0.010534988 0.33172172
0.016841292 -0.050875425 -0.11879018 -0.6951963 0.42134103 0.07364668 -0.06498694 -0.724804
0.04912765 0.01959192 -0.14012142 0.21327081 -0.03614213 -0.09473933 -0.14505558 0.033862237
0.061697442 0.007778095 -0.06966986 -0.045548473 0.054854516 0.0786239 -0.24356328 0.026124889
0.046898417 -0.38441214 -0.21053208 -0.04362202 0.027981875 0.19224809 -0.052100424 0.08852353
-0.010656846 -0.002703863 -0.06722323 -0.081684895 0.01314351 -0.10937406 -0.43597606 -0.0028589389
-0.08710882 0.045275245 -0.04051091 -0.077072635 -0.08764683 -0.031971466 0.00017144349 0.0925992
-0.5792979 -0.012007808 -0.056344148 -0.13213842 -0.24915233 -0.034736797 0.10652048 -0.026966859
-0.03200836 -0.016526312 -0.07082469 0.015170142 -0.24081208 0.039905682 0.004332127 0.064668626
-0.48626348 0.052120738 -0.052436627 0.047403533 0.07037219 -0.05510618 -0.3134387 0.044825725
-0.14244567 0.119089484 0.03314841 0.29383254 -0.047317114 -0.043461792 -0.027307816 0.31680912
00000000: 87e0 b33d e613 4e3c 8d76 e8bb c9be 413b
00000010: 6141 803d 9bd5 8abd 3c61 423e 8534 df3d
00000020: ef83 1e3c 0036 cebe 190a 06bd 8cd8 113b
00000030: c9f6 6dbd be4d 3f3e e8e5 ccbe 962d 6bbc
00000040: 1253 213c 1416 9cbd 0cdb a2bd 6fe2 04bf
00000050: 3241 0bbf dc24 58bc ba62 25be 7edd adbd
00000060: b4be 36bd 6e57 83be 8798 773e 00a8 94bb
00000070: 4385 f3bd f43d 0b3e bc2b 663d f358 32bd
00000080: 86c6 8cbd 17cd 853d 2678 9d3c b0b7 d6be
00000090: 1ad1 0ebf d644 e63c 2e0c 263d 5b6b c5bc
000000a0: 915a 10bf 4282 fabc 9b74 183d e8af 143d
000000b0: f176 9abf 6d2e 8dbd 8be3 c13d 2a79 81bf
000000c0: 3d6a a5bd 4190 68be 1ee4 bdbe b844 66bf
000000d0: 9545 a3be e718 933d 4151 83bc e996 fabe
000000e0: 650a 10bd 767d 89bd ecba 04bc 54a6 bfbe
000000f0: 4080 3b3d 02a8 54bd 014f cb3e 4856 843c
00000100: e137 afbd 2897 37bd facc 003d f7af 4f3e
00000110: 03ca 653d 1724 073d 95fd 2ebf 3c0d 3b3c
00000120: 93c6 323d e956 02bf 1e42 9fbe 9086 b63e
00000130: a033 c93d baf2 8abe 9d1f 69bd 40bb b33d
00000140: e4cc 963e f92c cd3d 90c1 41bd 0066 a93b
00000150: 44ce 5bbd 4e5c 29be 30ea 14be eb53 763d
00000160: 9e6f 1d3e f423 90bc 7ad9 a63d 4d53 86bd
00000170: 8ffa dc3d 1875 ae3c 7e27 693d 7ebd 1a3d
00000180: a965 2f3d 970e 9bbb 7a7b d7bc 3ebe 4abe
00000190: 7a88 f6be f79d 6fbd 12dc 733e f089 5d3c
000001a0: b61b 353d ca59 2cbb fe3d a63d cefa 04bf
000001b0: 3cdb 46be 14f7 6fbd 6832 633c 39c2 be3c
000001c0: ef86 48bf 4fe7 533e 7ef8 dc3c 9e92 b4bd
000001d0: 6ed9 a7bd 179f d7bc 2678 cabe 739d 81bd
000001e0: 3a7f 913d edcd 283f d668 2fbd 3d9d be3d
000001f0: b218 be3e c7c2 52bf 974b 52bd d292 7d3e
00000200: ad6a 1abd 08f3 a73d 8095 7d3e a789 31bd
00000210: e1fe a8bd 625f 873b 97b2 d8bd 49b8 72bd
00000220: 7859 2c3d 0c6f efbd 9ae4 89bd f135 9b3d
00000230: 22d4 703d 15bd 80bf 6636 df3d 4094 e33d
00000240: b79e 9e3b f539 74bd bd66 1abc de3e e7be
00000250: 4ca5 6c3e 21bb f03d 150e f0be c45f c23d
00000260: 3806 893c d698 1b3d 5639 163e 14b6 233d
00000270: ee7a 863e ee41 afbe 26af 2e3d 46ed 32bf
00000280: dcef cfbc 57bf 68bd b1f4 89be 2b8f 9c3e
00000290: 1f7e 4d3d e498 9fbf ca42 9c3d ef5d 7e3d
000002a0: 1aaf f3be 7396 f33d 02f3 b237 8e3f b8bc
000002b0: 3016 9e3e cd0e a4bd f19a 2cbc 6ed7 a93e
000002c0: c0f6 893c c062 50bd 4448 f3bd 62f8 31bf
000002d0: 03ba d73e 12d4 963d df17 85bd c18c 39bf
000002e0: 133a 493d 3c7f a03c fd7b 0fbe aa63 5a3e
000002f0: c509 14bd b206 c2bd 7389 14be 21b3 0a3d
00000300: 75b6 7c3d 64df fe3b 12af 8ebd 0991 3abd
00000310: 21af 603d 9105 a13d a768 79be dd03 d63c
00000320: 8e18 403d abd1 c4be b995 57be 01ad 32bd
00000330: 3f3a e53c afdc 443e 4167 55bd d34b b53d
00000340: 0d9a 2ebc 4b33 31bb 55ac 89bd 694a a7bd
00000350: e057 573c 82ff dfbd 4138 dfbe 095d 3bbb
00000360: 1c66 b2bd 8972 393d c5ee 25bd 42d8 9dbd
00000370: 2e80 b3bd 83f4 02bd 83c5 3339 a6a4 bd3d
00000380: de4c 14bf 66bc 44bc 1fc9 66bd 4b4f 07be
00000390: ca21 7fbe 2c48 0ebd 6927 da3d 9ae9 dcbc
000003a0: 331b 03bd 3062 87bc 890c 91bd 308c 783c
000003b0: 7197 76be 2474 233d 84f4 8d3b fc70 843d
000003c0: 87f7 f8be 8e7c 553d cac7 56bd 352a 423d
000003d0: 4b1f 903d 05b7 61bd 0a7b a0be 2e9b 373d
000003e0: 47dd 11be 30e5 f33d a1c6 073d 3871 963e
000003f0: 97cf 41bd fe04 32bd a4b4 dfbc ce34 a23e

fc2.bias f4 [64]
2.5848789e-05 0.21085331 -0.5437218 -0.22398198 -0.26942766 -0.08612295 -0.17495945 0.24225828
0.61235017 -0.40673798 -0.21596785 0.03953092 -0.6597881 -0.27121782 0.31868422 0.28746516
-0.70032716 -0.47738126 -0.08752788 -0.32792854 -0.19285324 -0.39574692 0.020864617 0.5620515
-0.2035103 -0.22313537 -0.273762 -0.2807691 0.3191399 0.0021737504 -0.40230128 -0.31755546
0.008052555 -0.13700214 1.0046539 -0.2883306 -0.1239264 -0.13541897 -0.2190753 -0.58121413
-0.62008 -0.25901586 -0.33494845 -0.6731275 -0.24309865 0.4933826 -0.12164008 0.11184424
-0.37322405 -0.073185496 -0.24849488 -0.7540684 -0.13419022 0.6198345 -0.7179263 -0.055863053
0.18440439 -0.305491 -0.14397055 -0.104454696 0.76414627 0.15654941 -0.29853606 0.7707197
00000000: dad5 d837 eee9 573e 5a31 0bbf 885b 65be
00000010: 6cf2 89be 3b61 b0bd 9228 33be 8e12 783e
00000020: fbc2 1c3f f63f d0be ad26 5dbe 2deb 213d
00000030: dfe7 28bf 10dd 8abe 942a a33e a22e 933e
00000040: a448 33bf 516b f4be d141 b3bd 40e6 a7be
00000050: 527b 45be 579f cabe 46ec aa3c 9be2 0f3f
00000060: 0165 50be 997d 64be 882a 8cbe f8c0 8fbe
00000070: 4e66 a33e 7b75 0e3b 6ffa cdbe a196 a2be
00000080: ddee 033c 4a4a 0cbe 8098 803f 12a0 93be
00000090: 20cd fdbd 45ab 0abe 4755 60be 73ca 14bf
000000a0: 90bd 1ebf ba9d 84be 5d7e abbe 1552 2cbf
000000b0: daee 78be a59c fc3e 6f1e f9bd 980e e53d
000000c0: 3917 bfbe 47e2 95bd 7175 7ebe a00a 41bf
000000d0: 2969 09be 79ad 1e3f 05ca 37bf a8d0 64bd
000000e0: 81d4 3c3e 5169 9cbe 046d 13be 58ec d5bd
000000f0: 179f 433f 7d4e 203e b8d9 98be e34d 453f

fc3.weight f4 [10, 64]
-0.6823809 -0.48897484 -0.326815 -0.21331087 0.16777742 0.08147052 0.3199768 -0.02387972
-0.14489721 -0.2962616 -0.086698666 -0.07882013 0.13749862 -0.5363136 -0.4269937 -0.17739983
-0.1493487 -0.16205692 0.1193919 0.0054671066 0.09064965 -0.19458498 0.168737 -0.13969414
0.18803795 -0.22797565 0.02718251 -0.31972536 -0.18200767 -0.10564213 -0.6376445 -0.10628076
0.049093157 0.11747875 -0.11958724 -0.2752865 -0.09205126 -0.4256942 0.089933895 -0.21957497
-0.006965354 -0.23349673 -0.011600571 0.0048794737 -0.037773564 0.01939388 -0.058698896 0.062353242
0.10878176 -0.13520427 0.12092252 -0.2491708 0.114047945 0.057744704 0.12447873 -0.084219925
-0.029554145 -0.12529038 -0.03477451 0.047193695 -0.049205966 0.2844825 -0.22330526 -0.067151405
0.2155178 -0.12669207 0.0641858 -0.0044677197 -0.40328214 0.08313757 -0.06504972 -0.19835731
-0.15715447 -0.1337057 0.06783741 0.16969053 -0.87716496 0.0839733 0.08617731 -0.17097141
-0.061233114 0.1899864 -0.036480755 0.08857395 -0.0024503747 -0.12786755 -0.20177776 -0.0024354882
0.079583585 -0.28427848 -0.366495 -0.2688581 -0.36013004 -0.18752061 0.06566818 0.004362948
-0.31042418 -0.63463944 0.034674082 -0.04095131 -0.12637274 0.13808872 -0.052002907 0.13716769
0.24612504 -0.32911178 -0.3442326 0.16575505 0.014659158 -0.08112521 -0.040937826 0.012332677
-0.17835973 -0.013125883 -0.1955961 0.25314945 -0.1841928 -0.023000324 -0.35807595 -0.15870582
-0.029345011 -0.4576933 -0.09798103 0.013999669 -0.177698 0.050063152 -0.22177434 0.10137325
-0.1487979 0.16583554 0.16483544 0.13911597 -0.18099718 0.036844883 -0.07388808 -0.2414072
-0.1865747 0.20317866 0.10229998 -0.2226445 -0.13621879 -0.32510445 -0.0074083772 0.060882602
0.0760557 0.11223068 -0.34212556 0.0447847 0.18067269 -0.3077893 0.07641886 0.10962477
0.06743135 -0.072798505 0.002719407 -0.19264403 -0.19021788 -0.14585315 -0.26375857 -0.032345217
-0.118347615 0.061714727 0.014889492 -0.18772043 0.033867158 0.05840185 0.1412471 -0.14625718
0.06615257 -0.04469673 -0.024172602 -0.07076436 -0.15754999 0.0062058866 0.13301544 0.14579035
-0.090644546 -0.043816574 -0.07143822 -0.20129244 -0.04823378 0.06750246 0.12894681 0.009906786
0.14529507 -0.093346424 0.039887704 -0.010946322 0.0140259825 0.014314481 -0.016728945 -0.19760105
0.20051841 0.00970838 0.075866655 0.01990313 -0.22005805 -0.23340476 0.23109597 -0.16350372
-0.08011104 0.14970118 -0.17930433 0.02016927 0.1594415 -0.29343453 -0.053123344 0.21627995
0.013012896 -0.17063007 -0.046708617 0.06492649 0.11267728 -0.13760935 0.05913031 0.11132578
-0.15868303 -0.04204926 -0.0867636 -0.12996544 0.051734485 -0.13631812 -0.1925312 0.19723941
0.17872098 -0.27392837 -0.14240296 -0.32091343 0.046826538 -0.23330936 -0.26593193 -0.07191811
-0.09169067 -0.2507674 -0.29931596 -0.27265263 0.0043627825 0.16208583 -0.02313401 -0.15303743
0.105048835 -0.008191264 0.07709451 0.1535851 -0.05390972 0.088232726 -0.039560188 0.22556391
0.0814007 -0.31772387 0.044259865 -0.08130238 -0.021777509 0.08293829 0.01333505 -0.13749759
00000000: 84b0 2ebf e95a fabe 4c54 a7be 2a6e 5abe
00000010: d8cd 2b3e 04da a63d 00d4 a33e 679f c3bc
00000020: ef5f 14be 9aaf 97be 128f b1bd 736c a1bd
00000030: 70cc 0c3e d94b 09bf eb9e dabe 4da8 35be
00000040: deee 18be 40f2 25be be83 f43d 6a25 b33b
00000050: 86a6 b93d 4941 47be 64c9 2c3e fb0b 0fbe
00000060: 058d 403e 7372 69be dbad de3c 0bb3 a3be
00000070: 3860 3abe e75a d8bd ac3c 23bf baa9 d9bd
00000080: e815 493d b398 f03d 28ea f4bd 5af2 8cbe
00000090: 5f85 bcbd 97f4 d9be 432f b83d 43d8 60be
000000a0: a03d e4bb c419 6fbe 5210 3ebc fee3 9f3b
000000b0: 74b8 1abd eadf 9e3c 416e 70bd 1d66 7f3d
000000c0: f9c8 de3d fd72 0abe 3aa6 f73d a126 7fbe
000000d0: f891 e93d b685 6c3d b4ee fe3d 7f7b acbd
000000e0: 891b f2bc 1f4c 00be b76f 0ebd 2d4e 413d
000000f0: 328c 49bd b1a7 913e 22aa 64be ad86 89bd
00000100: b3b0 5c3e 91bb 01be d873 833d f365 92bb
00000110: ff7a cebe 0844 aa3d ca38 85bd 2e1e 4bbe
00000120: 1aed 20be 26ea 08be 57ee 8a3d 5bc3 2d3e
00000130: e28d 60bf 32fa ab3d bb7d b03d 2113 2fbe
00000140: 93cf 7abd cb8b 423e d86c 15bd 4266 b53d
00000150: 7796 20bb b6ef 02be d49e 4ebe b69c 1fbb
00000160: b8fc a23d f38c 91be 3ca5 bbbe c5a7 89be
00000170: f762 b8be 6705 40be 0a7d 863d 0ff7 8e3b
00000180: ebef 9ebe bb77 22bf 6906 0e3d 90bc 27bd
00000190: db67 01be 2167 0d3e 0001 55bd b075 0c3e
000001a0: 3408 7c3e 5781 a8be 413f b0be b1bb 293e
000001b0: f72c 703c f924 a6bd 6cae 27bd ff0e 4a3c
000001c0: efa3 36be f20d 57bc 584a 48be ce9c 813e
000001d0: 0a9d 3cbe 2d6b bcbc bb55 b7be c783 22be
000001e0: f364 f0bc c756 eabe 47aa c8bd de5e 653c
000001f0: 77f6 35be 050f 4d3d d018 63be c79c cf3d
00000200: 7a5e 18be cbd0 293e 9fca 283e 6b74 0e3e
00000210: 5357 39be a9ea 163d a252 97bd 7333 77be
00000220: 700d 3fbe 110e 503e a782 d13d ebfc 63be
00000230: f07c 0bbe 1774 a6be f9c1 f2bb 0960 793d
00000240: 17c3 9b3d 33d9 e53d 152b afbe 2970 373d
00000250: 4302 393e 8f96 9dbe 7e81 9c3d f482 e03d
00000260: 7319 8a3d 6217 95bd 1438 323b 7a44 45be
00000270: 7ac8 42be 875a 15be 5d0b 87be 6b7c 04bd
00000280: 3c60 f2bd 95c8 7c3d 0ef3 733c c939 40be
00000290: 4ab8 0a3d c736 6f3d 14a3 103e 71c4 15be
000002a0: 007b 873d eb13 37bd 9f05 c6bc e8ec 90bd
000002b0: c954 21be c05a cb3b 3335 083e 114a 153e
000002c0: d9a3 b9bd 0279 33bd 344e 92bd 9b1f 4ebe
000002d0: c990 45bd bb3e 8a3d a20a 043e 1250 223c
000002e0: 3bc8 143e 692c bfbd 4a61 233d 3458 33bc
000002f0: 3ccd 653c 4987 6a3c 240b 89bc ee57 4abe
00000300: b354 4d3e e60f 1f3c fa5f 9b3d e40b a33c
00000310: e656 61be a801 6fbe 6ca4 6c3e 856d 27be
00000320: 4211 a4bd 444b 193e 8e9b 37be 063a a53c
00000330: a244 233e 0d3d 96be dd97 59bd 7e78 5d3e
00000340: 0b34 553c a6b9 2ebe 8951 3fbd 2ef8 843d
00000350: 59c3 e63d 77e9 0cbe a032 723d c5fe e33d
00000360: ce7d 22be d83b 2cbd 1db1 b1bd a915 05be
00000370: 8ae7 533d fa96 0bbe e626 45be 21f9 493e
00000380: a202 373e 5740 8cbe 15d2 11be c44e a4be
00000390: 2fcd 3f3d a6e8 6ebe 3b28 88be cd49 93bd
000003a0: 51c8 bbbd 9664 80be f13f 99be 2099 8bbe
000003b0: acf5 8e3b d4f9 253e 8983 bdbc d8b5 1cbe
000003c0: d823 d73d a734 06bc bae3 9d3d 6a45 1d3e
000003d0: 70d0 5cbd 5cb3 b43d dd09 22bd 3afa 663e
000003e0: 69b5 a63d b4ac a2be d549 353d dd81 a6bd
000003f0: bf66 b2bc 8ddb a93d 417b 5a3c 2bcc 0cbe

fc3.bias f4 [10]
-0.17711039 -0.28571495 -0.30030543 0.08685868 -0.04003203 -0.45105946 -0.51603496 -0.50420535
1.3122773 0.28186676
00000000: 6d5c 35be 3b49 92be a2c1 99be f7e2 b13d
00000010: a0f8 23bd 44f1 e6be de1a 04bf 9a13 01bf
00000020: b4f8 a73f d750 903e
